model/gpt_mini.pt (torch, 292766 bytes, 30 tensors)

token_embedding.weight f4 [23, 64]
000000 07 93 5c 3f 1b be 12 bf cd 31 44 be 48 02 a2 3e
       0.86161846 -0.5732133 -0.19159622 0.31642365
000010 ad d3 ab 3f 20 80 24 3e 75 eb af be 32 47 be 3f
       1.3423973 0.16064501 -0.34359327 1.4865477
000020 9d 0f 29 bf 13 8c d3 3f 6d 09 67 3f 91 19 82 be
       -0.6603945 1.6527122 0.9024876 -0.2541013
000030 11 3d 10 3f 6a 27 3d 3f e7 6e b9 bf 00 d7 83 3d
       0.5634318 0.73888266 -1.448697 0.06437492
000040 e3 2a 36 bf 3f a3 fc bf e4 69 92 3e 20 78 a5 3f
       -0.7115919 -1.9737319 0.28596413 1.2927284
000050 f9 26 d8 3f d4 68 cd 3f c3 66 a6 bf 5a 01 29 be
       1.6886894 1.6047616 -1.300011 -0.16504422
000060 23 a0 7b 3d a1 e2 a8 3e d4 f7 60 be df b5 0a be
       0.061432015 0.32985404 -0.21969539 -0.13545941
000070 10 ee 9a 3f 4f c6 09 40 d1 b4 81 3e 19 08 3e be
       1.2103901 2.1527288 0.25333264 -0.18557777
000080 61 69 8f 3f 5b 7e 8f bf b5 9e ef 3e 06 0c 63 bf
       1.1204034 -1.1210436 0.4680077 -0.8869022
000090 7a b1 a3 be 9b 7f 27 bf a0 c1 b6 be c1 d6 91 bf
       -0.3197134 -0.65429085 -0.356946 -1.1393663
0000a0 7e 34 63 be 78 5b b6 3f 46 78 33 40 32 5f b7 3e
       -0.22187993 1.4246664 2.804216 0.35814816
0000b0 d0 62 32 be e5 96 ac be 98 8a 55 3f c0 43 a8 be
       -0.17420506 -0.33708873 0.834146 -0.3286419
0000c0 3e 55 93 3f 51 f5 25 bf f1 26 98 3f 84 bb 7d bf
       1.1510389 -0.6482745 1.1886884 -0.9911425
0000d0 33 41 73 3f 6c 8c 8a 3f 09 cf 18 40 ef 86 29 3f
       0.9502136 1.0824103 2.3876364 0.6622152
0000e0 05 50 53 3d bb 9d b0 3e c3 3a 5f 3e 9f 28 2d bf
       0.051589984 0.3449534 0.2179976 -0.6764011
0000f0 0a 38 c5 3e 2a 47 1a 3f ed b0 55 3f 04 21 cb bf
       0.38519317 0.6026484 0.8347309 -1.586945
000100 c9 8e 31 bf fa 90 e7 3e 72 06 8d 3f 59 db ed 3f
       -0.693585 0.45227796 1.1017592 1.8582565
000110 1d ca 26 3d 05 fd b0 bf 8f cf 2a bf 05 ee af be
       0.040720094 -1.3827215 -0.6672296 -0.34361282
000120 03 f8 6e 3f 2e d4 04 bf 16 4d 05 be 04 13 b9 3f
       0.93347186 -0.5188626 -0.13017687 1.4458928
000130 8e 56 93 3f 5b ac da be 53 64 2b 40 5e 40 82 bf
       1.1510789 -0.42709622 2.6779983 -1.0175893
000140 99 3b 94 3e e9 ac 03 3c 4d b4 3f bf 23 28 9b 3f
       0.2895172 0.00803683 -0.7488449 1.2121624
000150 a1 98 9e be f9 f7 50 bf 88 a2 cf 3c 99 e5 e5 be
       -0.30975822 -0.81628376 0.025346056 -0.44901732
000160 ac 8f ae bc 62 cb 3b 3f 37 ba e5 bd f9 c5 fa 3e
       -0.021308742 0.7335721 -0.11217158 0.48979166
000170 3e 26 92 3f 9b 23 1a 3e 79 65 96 bf a7 77 07 40
       1.141792 0.15052645 -1.1749717 2.116678
000180 08 b2 cd be aa 98 9a be 48 f5 90 3e 7d 93 c6 3f
       -0.4017489 -0.30194598 0.28312135 1.551376
000190 c4 f9 ce bc e9 39 ed 3f bd fb 33 3e c1 61 da bf
       -0.025265582 1.8533298 0.175765 -1.7061082
0001a0 fc ca c6 3e f4 e8 11 bf ce e7 8d bf dd e7 88 bd
       0.3882674 -0.56996083 -1.1086366 -0.066848494
0001b0 52 5f 9a 3f 35 65 03 bf 01 cc 87 3f 9e f3 0a 3e
       1.206034 -0.51326305 1.0609132 0.13569495
0001c0 51 9f 4c c0 aa 52 a5 3f d3 dd b7 bc 83 7b 8b 3f
       -3.197224 1.2915852 -0.022444641 1.0897068
0001d0 1d 5d 31 be ad 00 fa be 83 53 65 bf 01 18 e3 bf
       -0.17320676 -0.4882864 -0.89580554 -1.77417
0001e0 15 ed e9 3d fc 31 2c 3e b2 14 2a 3e 60 46 95 3f
       0.11422173 0.16815943 0.16609457 1.1662102
0001f0 a1 d2 a2 be 36 b9 8e 3f 8f e3 b2 3e 5c 1c 5f 40
       -0.31801322 1.1150272 0.34939238 3.486106
000200 b3 c2 a1 3e b0 0c 5d bb ef 9d d5 3e 92 38 d0 bf
       0.31593856 -0.0033729486 0.41722056 -1.6267264
000210 45 b5 29 3f 11 52 70 bf ce aa 77 3f 8e a1 ab bf
       0.6629222 -0.93875223 0.96745 -1.3408678
000220 fc f5 fe 3e 89 16 2d 3f e6 c5 60 be a4 4f 36 bf
       0.49797046 0.6761251 -0.21950492 -0.7121527
000230 bf 16 60 bf d8 c0 13 bf fa 77 14 3f 0b e7 25 be
       -0.8753471 -0.5771613 0.5799557 -0.16201417
000240 a9 22 5e 3e c5 15 11 c0 af 91 a5 bd 1f 3f 8c 3f
       0.2169291 -2.2669537 -0.080844276 1.0956763
000250 f5 77 60 3f 63 ea 56 be 55 4a 53 3f e0 a3 b3 bf
       0.8768304 -0.20987849 0.82535297 -1.4034386
000260 48 a6 00 bf 85 1e d0 bf bb e9 ab 3f 09 38 be bf
       -0.50253725 -1.6259314 1.3430704 -1.486085
000270 e0 86 9e bf c2 01 18 3f c4 8e 4f bf 23 1e 9d 3f
       -1.238491 0.5937768 -0.8107722 1.2274822
000280 ca 19 f3 bf 70 de 00 3f 42 e2 70 3e 0d 39 29 be
       -1.8992245 0.5033941 0.2352381 -0.1652567
000290 35 46 57 bf e8 28 3a 3f 90 70 37 3f 62 5d fe bd
       -0.840915 0.7271867 0.7165613 -0.12420155
0002a0 d9 9e 94 bf 8e 82 5a 3f c5 d4 f8 bf 81 ed 13 bf
       -1.1610976 0.8535546 -1.9439932 -0.5778428
0002b0 fd 0c e3 be 9e e0 18 3f 46 fe 4b bc 1b d7 57 3f
       -0.44345847 0.5971774 -0.01245076 0.843126
0002c0 4b 11 89 bf 3c 9f 41 bf d0 0e 6d bf 6f e6 ce 3d
       -1.0708402 -0.756336 -0.9260073 0.101025455
0002d0 a7 f8 99 bf 03 d7 f0 be 9a 6c cb 3f df 92 01 3f
       -1.2029008 -0.4703904 1.5892518 0.5061473
0002e0 54 59 2c 3d 6d 19 85 3f 95 06 77 bf a0 5c 98 be
       0.042077377 1.0398384 -0.9649442 -0.29758167
0002f0 97 de 08 3e 2c b9 a8 bd 2e 55 fa bf 7f 4f 7f bd
       0.13366161 -0.08238444 -1.9557245 -0.062331673
000300 2c 17 a4 be bb 92 04 bf e3 a4 43 bd 50 af 88 3c
       -0.3204893 -0.5178639 -0.04776467 0.016685158
000310 7c 15 14 3e 91 f9 90 3f d7 2a 73 3f 9e 2c fb 3d
       0.1446132 1.1326162 0.94987243 0.122643694
000320 ec eb a2 bf 7a 38 20 be fd 74 6b 3d 75 b8 b4 be
       -1.2728248 -0.15646544 0.057484616 -0.3529698
000330 4c a1 f8 be 15 af 1c be 67 ef 14 3f 74 a2 b5 be
       -0.4856056 -0.15301163 0.581778 -0.35475504
000340 ec bf 7f 3f 86 54 b6 bf 43 fd c0 bf b4 42 51 3f
       0.99902225 -1.4244545 -1.5077289 0.81742406
000350 46 8e c9 bf 4d 16 03 be 3d a5 b1 3e 70 31 3a 3f
       -1.5746543 -0.12801476 0.3469638 0.72731686
000360 2e 5d 3a 3f 0b eb 0e 3e ab 35 45 3f 05 7b e9 3e
       0.7279843 0.1395685 0.77035016 0.4560167
000370 86 27 59 bf 8a 17 3d 3f 03 5b 18 3f 1a 3b 39 bf
       -0.8482593 0.7386404 0.5951387 -0.72355807
000380 98 c6 ed bd cc 02 7b bf 5a 3d 9b bf b6 17 c2 3f
       -0.116101444 -0.9805114 -1.2128098 1.5163486
000390 45 8d c1 be 17 9d b8 3e 64 71 0a bf 5b de ba bf
       -0.37803093 0.3605735 -0.5407927 -1.4599108
0003a0 7d d0 0e bf 5b 25 a8 be ac 34 86 bd b8 ee 9a 3f
       -0.5578688 -0.32841 -0.06553015 1.2104101
0003b0 ff c8 19 bf 0c c3 3a 3f 5e bf 67 3d 1e b8 9c 3f
       -0.6007232 0.7295387 0.056578986 1.2243688
0003c0 54 37 97 bf 11 d1 d2 be 3d fc 93 3f 69 7b 62 3f
       -1.181376 -0.4117513 1.1561352 0.8846956
0003d0 9b a7 76 bf 7f cf e0 bf 59 b3 cc 3f 41 a3 8b 3e
       -0.96349496 -1.7563323 1.5992233 0.2727299
0003e0 2b 3c a3 bf 73 84 23 bf f1 9d 7f 3e ed 0f 5f 3f
       -1.2752737 -0.63873976 0.24962594 0.87133676
0003f0 6e a5 90 bf c3 0a 78 bf 60 5b 0a 3f 53 f1 d6 3e
       -1.1300485 -0.9689142 0.5404568 0.4198099

position_embedding.weight f4 [8, 64]
000000 06 06 43 3f 1a 91 31 bf ba 7a eb bf 5e 67 2d bf
       0.76181066 -0.6936203 -1.8396828 -0.6773585
000010 fc eb c2 be 22 16 c0 3f 45 e3 66 be 69 65 88 3f
       -0.38070667 1.5006754 -0.22547634 1.0655948
000020 ca 9b be be ea 50 6d bf 3f cb a5 be 5f 8d 3f 3d
       -0.37228233 -0.9270159 -0.32381627 0.04676568
000030 6a 96 0b 3f 07 c9 d6 3f 3e 93 1b c0 ad ca 11 3f
       0.5452639 1.6780099 -2.430862 0.56949884
000040 c8 52 f5 bf 47 30 97 be 76 81 1d bf 1c bf c5 bf
       -1.9165888 -0.2952902 -0.61525667 -1.5448947
000050 f7 4e 92 3f b8 81 8e 3f 3b 3f 19 40 1e a6 ac be
       1.1430348 1.1133337 2.3944843 -0.33720487
000060 b3 50 41 be 8a 99 88 3e 49 89 7c bf 96 54 6c 40
       -0.1887844 0.2667964 -0.9864698 3.6926627
000070 4f fd 43 be a1 f4 dd bf b6 bb 89 be 45 c7 3c 3f
       -0.19139598 -1.734028 -0.26901025 0.7374156
000080 d3 53 cd 3e f2 2a 67 bf 79 f8 20 bf 19 21 97 bf
       0.40103015 -0.90299904 -0.6287914 -1.1806976
000090 70 62 da 3e 60 d3 92 3e 89 6b 63 3f ca c8 0e be
       0.42653227 0.2867689 0.8883596 -0.13943782
0000a0 ea 1c 18 bf 79 3a ed 3e 45 d0 b2 bf 21 65 84 3f
       -0.5941912 0.46333674 -1.3969809 1.0343362
0000b0 f6 b8 05 3f 0c 94 4a 3f b8 56 42 3e ac d4 a6 3f
       0.52235353 0.7913215 0.18978393 1.3033652
0000c0 37 e4 a4 3f 91 fd 55 3f df 62 bf 3f 2c f5 88 bf
       1.2882146 0.83590037 1.4952048 -1.069982
0000d0 2e 57 de 3b 6e a1 84 3f d5 d9 e6 3f a3 91 7d be
       0.006785295 1.0361764 1.8035227 -0.24762587
0000e0 44 84 91 3e f0 f2 89 bf 43 52 15 bf 45 42 cf 3f
       0.28421223 -1.0777264 -0.58328646 1.6192099
0000f0 b1 36 11 bf 24 59 b6 bd dd d9 e2 bf f4 36 9a bf
       -0.5672408 -0.08903721 -1.7722737 -1.204802
000100 2c 1c 94 be 78 cb 20 40 76 83 95 3e 2b eb c6 b9
       -0.28927743 2.5124187 0.2920186 -0.00037940717
000110 47 c7 9f 3e be 43 dd be 81 00 f4 be 92 eb ac 3f
       0.31206724 -0.43215746 -0.47656634 1.350939
000120 85 e1 0b 3f e1 3f b3 3f 07 2a 81 bd 6b 2a 12 be
       0.5464099 1.4003869 -0.06306844 -0.14273994
000130 6c 19 a9 3e 88 fd 37 3f 5c 82 2d 3f ee 54 70 bf
       0.33027208 0.71871233 0.6777704 -0.9387959
000140 a6 77 cd bf 79 a7 d3 3e 87 c8 b8 3e de 18 cd 3e
       -1.6052139 0.4133871 0.3609049 0.40058035
000150 1c 2f a6 3e e7 50 f8 bf d4 84 3b bf 87 c7 0b bf
       0.32457817 -1.939969 -0.73249555 -0.5460133
000160 6a 39 d3 bf 75 3c 2f 40 bb de 89 3e 4a b8 17 bf
       -1.6501896 2.738065 0.26927742 -0.5926558
000170 4c dd 49 bf e1 05 63 3f 09 af 4e be 52 eb 81 be
       -0.788533 0.88680845 -0.20183958 -0.25374848
000180 6b 90 f3 3e 76 3f 09 bf 2a db 2a 3f 58 7f 91 3d
       0.4757112 -0.5361246 0.6674067 0.07104367
000190 e4 59 9f be c9 a2 a5 bf 6c 7f 93 bf f7 32 90 bf
       -0.3112327 -1.2940303 -1.1523261 -1.1265553
0001a0 df 87 ae bf eb 7b 2f bf 15 ed 9a 3e b7 15 21 c0
       -1.3635215 -0.6854846 0.30259004 -2.5169504
0001b0 d4 57 84 be 06 da 0b be 69 b8 ce 3f 3f 66 08 c0
       -0.25848258 -0.13657388 1.6150028 -2.1312406
0001c0 41 70 5a 3f ac c6 6f be 4d ef d1 3f 66 ad 5c be
       0.85327536 -0.23415631 1.6401154 -0.21550521
0001d0 ee ab a4 bf 0d dc bc bf 91 5c b7 3e f1 76 2c be
       -1.2864969 -1.4754654 0.3581281 -0.16842248
0001e0 c1 59 ee 3e 83 18 04 be 69 b9 90 bf 63 d7 96 3f
       0.46552852 -0.12899975 -1.1306583 1.1784481
0001f0 8c 28 cb be 3d 72 1f 3d a5 75 13 40 6b 9e 21 3f
       -0.39679372 0.038927305 2.3040555 0.6313235
000200 fb a8 bb bf 47 b1 c5 be d7 4c e2 bd 52 cd 2e bf
       -1.4660944 -0.38611814 -0.11049812 -0.68282044
000210 60 b7 48 bf c5 82 2f 40 be 17 ac 3f 97 b4 98 3f
       -0.7840481 2.7423565 1.3444746 1.1930112
000220 33 7c 57 3f 0f bc 25 3e 1c 5d 05 bf 21 fe 41 bf
       0.8417389 0.1618502 -0.520952 -0.75778395
000230 84 78 86 3f b2 90 81 bf 58 6b 93 bf d9 61 72 3f
       1.0505528 -1.0122283 -1.1517134 0.94680554
000240 3f b0 cd bf 1a af 7e 3f dd 0c 26 3d f7 50 e9 ba
       -1.6069411 0.99485934 0.04053961 -0.0017800619
000250 1a 6c 15 40 6f 30 dc be 24 29 df 3e 12 a8 a6 3d
       2.334723 -0.43005702 0.43586075 0.081375256
000260 9e 5e 22 bf 8d 56 b6 be 43 5f de be 78 a9 1c bf
       -0.63425624 -0.35612908 -0.43432054 -0.6119609
000270 67 36 d1 3f 5f 2b 9c bf 35 9d 98 be 71 8e 5e bf
       1.6344727 -1.2200736 -0.2980744 -0.869361
000280 15 31 81 3d 20 bb 1b bf 00 be 9d 3e b7 ca 48 3e
       0.0630819 -0.60832405 0.3080902 0.1960858
000290 7a 1f 80 3f 21 68 36 3e a9 22 a6 3f ab 61 b1 3f
       1.0009606 0.1781316 1.2979327 1.3857931
0002a0 ea 50 e6 3f 5e f6 37 3f f0 e1 af 3f c1 7b 59 be
       1.7993443 0.718603 1.3740826 -0.21238615
0002b0 ad 8f 8d bf 2f ee 32 c0 9b fa 0c be 81 55 96 bf
       -1.1059471 -2.7957876 -0.13767473 -1.1744844
0002c0 e4 7a b5 bf ee fc f0 3e 34 68 84 be e1 4c 52 be
       -1.4178128 0.4706797 -0.2586075 -0.2053714
0002d0 01 8c 33 3e 83 97 c2 3f 94 9f 0f c0 95 42 f2 bf
       0.17533876 1.5202488 -2.2441149 -1.8926569
0002e0 75 8a a0 3f bc 82 cd 3f 3b 94 74 3f e3 7b 5e 3f
       1.2542254 1.6055522 0.9553868 0.86907786
0002f0 23 ae 28 bf d5 72 2b 3f 5c 94 1f 3f d5 ff 6b bd
       -0.6589071 0.66972095 0.62335753 -0.057617027
000300 9f 1b 42 3f e6 3c 26 40 8b 79 77 3f 69 b4 b9 3f
       0.75823396 2.597467 0.96669835 1.4508182
000310 8a f3 52 3f 37 46 32 be 63 19 4a bf 65 1c ba 3d
       0.8240286 -0.17409597 -0.7894499 0.09087447
000320 c7 86 97 bc 50 54 58 3d fb c2 ac be 23 0f e5 3f
       -0.018496884 0.05281478 -0.33742508 1.7895244
000330 77 04 91 3f fe 24 58 3f d9 08 1e 3f 02 0d c3 3f
       1.1329488 0.84431446 0.6173225 1.5238345
000340 3c c1 a6 be 96 70 64 bf f9 a4 3e be 1f b5 f6 bd
       -0.325693 -0.8923429 -0.1861762 -0.12046265
000350 3c cc 0f 3f bd 1e 28 3f 0a 54 d1 be 43 f6 95 3f
       0.5617101 0.656719 -0.4088443 1.1715778
000360 f0 99 be be 86 96 32 3f 19 c3 01 be cb f8 4f 40
       -0.3722682 0.6976093 -0.1267208 3.24956
000370 a9 c4 a9 bd ee df 9a bd 73 b9 ba 3e e6 fc fd 3f
       -0.08289463 -0.075622424 0.36469612 1.9842803
000380 3a f5 6f be 84 ec 4d bf 05 e3 19 c0 b6 47 b4 bf
       -0.2343339 -0.8043902 -2.4044812 -1.4084384
000390 26 07 95 3f de 0e 0b bf b1 93 3f bf 18 29 88 3f
       1.1642807 -0.5431956 -0.74834734 1.0637541
0003a0 43 ea c3 3e 46 3e bd 3e b1 af 05 c0 5b 48 be bd
       0.38264665 0.36961573 -2.0888484 -0.092911445
0003b0 48 06 a6 bf 5b 98 19 c0 c1 d6 6e 3e d1 8d a7 3f
       -1.2970667 -2.399924 0.2332411 1.3090154
0003c0 e3 e5 da 3f 7c 5b 85 bf 4f fc 71 bf 35 3d 20 bf
       1.7101406 -1.0418544 -0.9452562 -0.62593395
0003d0 4c cd 9b be 06 93 bc 3d 55 0f a7 be ec e3 db 3e
       -0.30430067 0.0920773 -0.32628885 0.42947328
0003e0 32 4b 79 3f 02 5d 6e 3f ea 6f 00 bf 1a 61 16 40
       0.97380364 0.9311067 -0.5017077 2.3496766
0003f0 c4 c6 bf 3f 71 0c 29 3f d5 a0 60 bf 4a 60 80 bf
       1.4982533 0.6603461 -0.8774541 -1.0029385

transformer_blocks.0.self_attn.in_proj_weight f4 [192, 64]
000000 cd 42 34 bc 55 62 fb 3d 39 c8 2f bd ac a0 a3 bc
       -0.011002255 0.12274615 -0.042915557 -0.019974075
000010 ac 52 17 be fb 43 07 3e c6 b7 78 bc 1a f9 9b 3d
       -0.1477763 0.13209526 -0.015180534 0.07615872
000020 d8 0e e2 bd 11 87 93 bd 3a 3f ae bc a1 4f f2 3d
       -0.110379875 -0.07203496 -0.021270383 0.11831594
000030 30 9a 2e 3d 58 df fd 3d e8 5f 3c 3d 43 e3 f7 bd
       0.042627513 0.12396115 0.0459899 -0.121038936
000040 eb 04 15 be d4 12 bc bd 91 d8 ee 3d 27 ed ef 3d
       -0.14552657 -0.09183279 0.116624005 0.11715155
000050 5e 39 24 3e e0 15 bc bd 64 8e a3 3d 39 d0 02 3d
       0.16037509 -0.0918386 0.07986143 0.031936858
000060 10 0b 09 3e fe 13 e9 3d 88 0b 84 3d 60 51 ae 3d
       0.13383126 0.11380766 0.06447512 0.08511615
000070 12 8b 8a 3c 62 e3 cc bd ae 7f 0f bd 6e 96 0e 3e
       0.016912017 -0.10004307 -0.035033874 0.13924572
000080 3b a5 cd 3c d7 cf f9 bd 56 86 16 bc a2 37 06 be
       0.025103202 -0.121978454 -0.009187302 -0.1310716
000090 82 b3 e2 bc 16 c7 16 3e be 9b 13 3d 6e 39 d0 3d
       -0.027673487 0.14724383 0.0360372 0.10167204
0000a0 36 c5 15 be 6a f3 11 be e2 66 37 3d 64 c9 18 3d
       -0.14626011 -0.14253011 0.04477585 0.037301436
0000b0 e9 41 ff bd e4 e2 7e 3d 32 fe 69 bd 6e a2 f0 3d
       -0.12463743 0.0622281 -0.057127185 0.11749731
0000c0 14 93 8f bd db c5 ae bd 6c 56 0f 3e 8a 5a 62 3d
       -0.07010475 -0.08533832 0.13997811 0.055262126
0000d0 ff f4 d0 bd 4f a6 5e bd 61 da 6c 3d ae 92 56 3d
       -0.10202979 -0.054357823 0.05782545 0.05238598
0000e0 0b 62 87 3d 1e f6 96 bd b2 8f 4a bd 77 e7 d8 bc
       0.06610497 -0.07371162 -0.049453445 -0.026477559
0000f0 07 09 4f bd a5 76 e9 bd 6c 18 1e be 7a 3c 8c 3d
       -0.05054572 -0.11399583 -0.15439004 0.068474725
000100 f8 7a b9 3d 01 53 40 bd 9f 3a 95 bd 12 c9 8b bd
       0.090566576 -0.04695416 -0.07286572 -0.068254605
000110 79 c6 9d bd 62 8c c0 3d 31 d1 06 3e ba cc 14 be
       -0.07703871 0.09401776 0.13165738 -0.14531222
000120 62 b7 4b bd 17 48 a0 bd 71 ee 1e 3e 23 45 ae 3d
       -0.049735434 -0.0782625 0.15520646 0.085092805
000130 e1 77 6a bd 09 c3 80 bd 78 af d2 bd bc 57 a9 bd
       -0.05724323 -0.062872 -0.10287374 -0.08268687
000140 00 13 0f be fc dd da 3d 97 dc 42 3d c1 82 ae 3d
       -0.13972092 0.106868714 0.047573652 0.08521033
000150 0e 2e 12 b9 54 d2 e1 3d fd ca 18 be 27 34 26 3d
       -0.00013940802 0.11026445 -0.14921184 0.04057708
000160 05 34 9c bd ef ea 2c 3c 20 70 17 be 1e 26 58 3d
       -0.076271094 0.010554059 -0.14788866 0.052770726
000170 cc 4f 01 bd 03 72 41 bd e8 25 b0 bd fe 4b ab 3d
       -0.03157024 -0.04722787 -0.0860098 0.08364104
000180 90 d1 d2 bd b6 86 08 3d ea 97 c7 bd 87 27 8e 3d
       -0.10293877 0.033331595 -0.09745772 0.06941133
000190 eb d2 ae bd d4 45 f5 3d 3d a2 c7 3d 61 d4 fb bd
       -0.08536323 0.11976209 0.09747741 -0.122963674
0001a0 d1 7d 58 bd a7 7f 33 3d d7 e6 d6 bd 9f 10 9f 3d
       -0.052854363 0.04382291 -0.10493248 0.07766842
0001b0 a1 0a 28 bc 1e 57 b1 bd 9c 94 7d bd d4 00 98 3d
       -0.01025644 -0.086591944 -0.061909303 0.07422033
0001c0 0c d4 67 bd 26 59 8d 3d 62 1b ab 3d 25 b1 7f 3d
       -0.056598708 0.06901769 0.08354832 0.062424798
0001d0 1c 70 31 bc e7 f3 9e 3d ff f2 09 3e f6 97 f1 bc
       -0.010829952 0.077613644 0.13471602 -0.029491406
0001e0 e9 84 b8 bd b7 7a 9c bd e4 cf 3e bb 33 fb 0c 3d
       -0.090097256 -0.076405935 -0.0029115612 0.03441925
0001f0 b3 a1 99 bd 5e e6 06 3d 70 d4 19 3e ff e7 c5 3d
       -0.07501545 0.03293454 0.15022445 0.0966339
000200 fd eb 97 3d 9c 31 a0 bb 9b 88 0e be 1a e9 1b 3e
       0.07418058 -0.0048887264 -0.13919298 0.1522564
000210 9c 49 90 bd 0d 7d 1f 3e d0 ec e5 3d 67 54 8c 3d
       -0.0704529 0.15575047 0.11226809 0.06852036
000220 51 14 81 bd 87 b0 59 bd 9d 0a 6d 3d 15 7b ca bc
       -0.06302703 -0.053146865 0.05787145 -0.024716893
000230 1c b0 22 bc 7d 4e 9a 3d 20 0b 9b 3d 6c 74 f2 3d
       -0.009929683 0.07534502 0.07570481 0.11838612
000240 2e e5 18 3e d7 55 31 bb f5 de 8d 3d 5b 25 a3 bd
       0.14931175 -0.0027059221 0.06927291 -0.07966109
000250 fa 70 76 bd b5 2d d6 3d 28 56 8a bd 5e b2 d2 bd
       -0.060166337 0.10457937 -0.06754714 -0.10287927
000260 a4 3b cc bd ea 99 07 be 45 08 07 3e 8c fb b5 bb
       -0.09972313 -0.13242307 0.13186748 -0.0055536684
000270 b3 98 f3 3d 60 3d 96 bd ed f5 4d ba 09 f6 f2 3c
       0.118943594 -0.07335925 -0.0007856775 0.029658334
000280 10 a5 13 3e 4b 06 e5 bd c6 c9 11 be fd c0 70 3d
       0.14418435 -0.11182841 -0.14237127 0.058777798
000290 c7 bd 07 be 56 16 88 3d 4a 4e 5d 3d 8b 74 8c bd
       -0.13255988 0.06644885 0.05402974 -0.06858166
0002a0 53 22 b1 3d 98 f2 93 bd 08 38 9d 3c 75 cd de 3a
       0.08649125 -0.072240055 0.019191757 0.0016998487
0002b0 99 51 b9 bd 83 2d 9b bd 11 d7 85 bd 0e 51 bf bd
       -0.09048767 -0.0757704 -0.06535161 -0.09341632
0002c0 6e 48 c5 3d 3f 24 9c 3d f2 98 55 3c 34 ed 2c bd
       0.096329555 0.07624101 0.013036953 -0.042218402
0002d0 84 d2 24 3d 39 69 0d 3e 22 4e 17 3e ea 79 f9 3d
       0.040239826 0.1380967 0.14775899 0.121814564
0002e0 4b 53 a9 bc 33 48 11 be 68 cd 70 bd 12 3b 96 bd
       -0.0206696 -0.14187698 -0.05878964 -0.073354855
0002f0 b2 14 c8 bd 64 3b 45 3c c3 c2 aa 3d 10 c5 29 3d
       -0.09769572 0.012038086 0.08337929 0.0414477
000300 c1 41 04 3e 5e 9b d4 bd 1c b7 11 3e a2 6e 4b bd
       0.12915708 -0.103811964 0.14230007 -0.049666055
000310 62 88 48 bb 8e 39 05 be a6 94 15 3e c5 fd 94 bd
       -0.0030598869 -0.13010237 0.14607486 -0.07274965
000320 e3 82 97 3d 09 e8 1f bb 6a 48 39 bd 4d b4 f0 3d
       0.073980115 -0.0024399778 -0.045235075 0.1175314
000330 8e 29 32 3d ad 10 e5 3d 6b 80 d7 3d a9 d0 0e 3d
       0.04349666 0.11184821 0.10522541 0.034866963
000340 8f c3 3b bd a4 8c f8 3d 1c 2a 1d be 26 aa 5d 3d
       -0.045840796 0.121362 -0.15348095 0.054117344
000350 40 e1 41 bd d1 f8 97 bb 10 84 06 be bb 72 c9 3d
       -0.047333956 -0.0046378155 -0.13136315 0.09836336
000360 2d 23 f0 3c 5b cc ce bd d4 e2 9a 3d 8e 9c 7e bd
       0.029313648 -0.100975715 0.07562795 -0.06216102
000370 55 53 01 be c1 78 6a bd 70 b1 84 3d 95 a0 1b be
       -0.12629445 -0.057244066 0.06479156 -0.15197976
000380 2d 50 89 3b ca 1f 11 3e e6 36 de bd 7a 29 b0 3d
       0.004190466 0.14172283 -0.10850315 0.08601661
000390 70 34 3b bd c7 5a d3 3d 67 dd 73 3c 30 9e 61 3d
       -0.045704305 0.10320049 0.014884329 0.0550825
0003a0 0e cb f1 3d e2 1b 18 3d 32 c0 20 3e 88 a4 fa 3d
       0.11806308 0.037135966 0.15698317 0.12238413
0003b0 b2 dc 05 be 29 4d 17 3d 9d bb 0c bc 64 d3 c1 3c
       -0.1307247 0.03693882 -0.008589652 0.02366037
0003c0 d7 81 2f bb 67 91 01 3e 86 90 ff bd ff 28 17 3d
       -0.0026780271 0.12653123 -0.124787375 0.03690433
0003d0 f7 af 10 be 0c 5a fb bd c1 c2 96 bd 9b 73 15 bc
       -0.14129625 -0.122730345 -0.07361365 -0.009121801
0003e0 28 e3 bf 3d 5e 73 0b 3b 6b 25 20 3d 62 f7 21 bd
       0.093694985 0.002127848 0.039098185 -0.039542563
0003f0 43 80 83 bc 9f f2 c2 3d ba c2 59 3d c6 8c ed 3c
       -0.01605237 0.095189326 0.05316422 0.02899779

transformer_blocks.0.self_attn.in_proj_bias f4 [192]
000000 f2 cb d5 3b 2a d6 cd 3a 69 4c 58 3b f8 2b 26 bb
       0.0065245563 0.0015704085 0.0033004528 -0.0025355797
000010 92 aa 0a 3c 85 41 61 bb 86 5d 91 ba 3c a7 90 bb
       0.008463519 -0.0034371328 -0.0011090494 -0.004414467
000020 29 2d 4f 3b 81 0c a9 bb 57 86 63 3b a7 38 ee ba
       0.003161261 -0.0051589613 0.0034717524 -0.0018174843
000030 63 57 10 bb 35 e3 36 3b 73 6e 88 ba e9 cb ce bb
       -0.0022024743 0.0027906422 -0.0010408893 -0.006310929
000040 66 c2 4b bb de e1 82 3b 87 30 13 bb 52 ab 19 3b
       -0.0031091212 0.0039942106 -0.0022459344 0.0023448062
000050 bf de 4f 3b 8b c2 02 3b db 7b b6 3a 13 73 a9 3b
       0.003171846 0.0019952382 0.001392241 0.0051711886
000060 2d 31 e3 bb 04 cd f1 bb a4 d3 e1 bb c4 fd c7 3b
       -0.0069333524 -0.007379176 -0.0068916846 0.0061032493
000070 e5 d5 3a bb 14 40 7b 3a 3e 84 b9 bb 87 5f e5 3b
       -0.0028508839 0.00095844385 -0.0056615165 0.006999913
000080 71 d9 60 3b 82 e7 bf bb 1b 6d 3a 3b 93 a8 a3 3b
       0.0034309293 -0.0058564553 0.002844638 0.004994461
000090 fe 80 6f 3a a0 28 fa 39 d3 95 26 3b c2 86 50 3b
       0.0009136348 0.00047713984 0.0025418892 0.0031818603
0000a0 52 bd cc 3b cb 8a 1c 3b ac 84 2d bb 9e 7b 10 bb
       0.0062481547 0.0023886438 -0.0026476784 -0.0022046338
0000b0 e6 eb ca ba 51 81 db bb 95 b0 8c bb ee c1 d4 ba
       -0.001548168 -0.0066987653 -0.004293511 -0.0016232112
0000c0 94 1b ab bb 44 dc 41 b9 7c 3e 0a bc f0 16 2b bb
       -0.0052217934 -0.0001848797 -0.008437749 -0.00261062
0000d0 13 9b 09 3b 95 c4 4b bb 8b 7f 01 bb f7 40 8e bb
       0.0020996972 -0.0031092514 -0.001975986 -0.0043412405
0000e0 5f aa 0b bc b7 dd bb 3a 02 6c 75 3b 2f 9e 4d bb
       -0.008524506 0.0014333044 0.003744841 -0.0031374802
0000f0 d6 bc c7 ba 53 97 a1 bb ce c9 bd bb 18 41 e4 3b
       -0.0015238773 -0.0049313693 -0.0057918793 0.0069657676
000100 d7 39 6a 38 e8 45 e3 38 e0 0f 4d b8 e2 45 4b 38
       5.5843815e-05 0.000108372245 -4.8890593e-05 4.8464055e-05
000110 a6 6b a1 37 1d 9f b0 b8 58 4f 7c 38 e9 af 9a b8
       1.9242823e-05 -8.421971e-05 6.0155377e-05 -7.376058e-05
000120 ec 4f 25 38 30 fd 26 39 46 fd 1f b8 ab ae 69 b7
       3.94135e-05 0.00015925313 -3.8144433e-05 -1.392855e-05
000130 55 72 2f b7 5b 19 c5 b8 ad ca 6c 38 17 6b 76 37
       -1.0457433e-05 -9.398415e-05 5.645554e-05 1.4687676e-05
000140 c0 a5 90 38 7f ff e6 38 f1 6c 1f 39 ef 1b 5d 38
       6.8973284e-05 0.000110148445 0.00015204005 5.271652e-05
000150 c2 b5 aa 37 1b 9d 3f b8 c1 8b 88 b8 66 fe 11 b6
       2.0350217e-05 -4.5684264e-05 -6.5110165e-05 -2.1754763e-06
000160 11 8c 85 38 20 e4 8b b4 82 ea b3 37 b0 32 01 b8
       6.3680236e-05 -2.605675e-07 2.1447664e-05 -3.0803203e-05
000170 28 ed 9f b8 a3 80 a4 b8 ef 63 14 b9 79 38 e5 37
       -7.6258846e-05 -7.84409e-05 -0.00014151608 2.7325224e-05
000180 6c 9d 8f b8 1d ac b2 b7 70 8d 11 b9 ac 8b 1a 39
       -6.8480935e-05 -2.12994e-05 -0.00013880967 0.00014738616
000190 46 5b cb 37 d6 c5 ca b7 0b 7d a3 38 96 d8 34 b8
       2.4241988e-05 -2.4172401e-05 7.795737e-05 -4.3117056e-05
0001a0 1c 9d a7 37 db 97 92 b8 03 95 b9 b8 ba 5b 54 b8
       1.9981111e-05 -6.990108e-05 -8.849243e-05 -5.0630166e-05
0001b0 64 59 05 b8 50 d4 c6 b6 2d 9a ba 38 66 38 91 38
       -3.1792923e-05 -5.9255763e-06 8.8978886e-05 6.924644e-05
0001c0 fc 97 94 b8 65 f0 f3 36 7e 81 d6 38 69 e5 1d 39
       -7.085499e-05 7.26995e-06 0.00010228435 0.00015058149
0001d0 a7 e7 da b7 83 38 96 b7 1f 0a 98 37 12 37 7e b8
       -2.6095497e-05 -1.7907709e-05 1.8124525e-05 -6.0609607e-05
0001e0 5e 28 b4 b7 a0 a7 01 b8 e9 dc 64 38 16 b0 0b b9
       -2.147647e-05 -3.091211e-05 5.4565175e-05 -0.0001332167
0001f0 31 f6 27 b8 65 d2 bc b7 60 56 51 b8 bf 6c 04 b9
       -4.0045186e-05 -2.2509319e-05 -4.9909926e-05 -0.00012629012
000200 4c e8 81 3b 0d e2 33 3b 47 f2 1d bc 01 f0 9b bb
       0.0039644595 0.002744797 -0.009640283 -0.0047588353
000210 17 8d 08 bb d6 9f 04 bc 2f e1 ac 3b 14 46 80 3b
       -0.002083605 -0.0080947485 0.0052758674 0.003914604
000220 10 ff 19 38 b9 60 89 3b 42 47 27 3b 96 a6 c7 bb
       3.6715588e-05 0.0041924384 0.002552465 -0.0060928566
000230 d8 46 09 3a 9f f4 83 3b 63 a2 08 bc c5 76 5c 3b
       0.0005236692 0.004026964 -0.008339497 0.0033640128
000240 6b 06 06 3b 1f 1f d8 bb 0a 07 41 3b 87 c1 ae 3b
       0.0020450603 -0.006595507 0.0029453658 0.005333129
000250 1f 65 21 3c 42 a8 f9 bb 14 9d 97 ba 57 94 70 39
       0.009850769 -0.007618935 -0.0011567199 0.00022943444
000260 7a 60 62 b9 94 6d 6a bb 5e 53 85 39 3f ff 13 bb
       -0.0002158898 -0.003577088 0.0002542985 -0.0022582558
000270 d2 56 62 3b c2 1b b4 bb a4 20 c1 bb 5a d9 b3 3a
       0.0034536612 -0.005496473 -0.0058937836 0.0013721392
000280 4e 29 de 3b 1e 83 54 3b a3 75 0a 3b 75 84 86 3b
       0.0067798262 0.0032426785 0.0021127246 0.0041051456
000290 00 34 4b bc ab 08 04 3c 8a 92 2b bb de c6 b5 bb
       -0.0124025345 0.008058707 -0.0026179873 -0.0055473885
0002a0 50 1d fe 3b 09 f1 76 3b 47 e5 dd bb 02 86 ca bb
       0.007754959 0.003768029 -0.0067717168 -0.0061805258
0002b0 12 9e bc ba 76 a0 5f 39 9f 00 a0 ba 5a 85 86 bb
       -0.001439037 0.00021326714 -0.0012207216 -0.004105252
0002c0 12 6d 8d bb 5d d7 f9 3b 03 d9 f2 3b e6 af bd bb
       -0.0043159807 0.0076245503 0.0074111237 -0.005788791
0002d0 8a cb 02 bc d5 df bd 3b 73 53 8c bb 16 40 fe 3b
       -0.007983098 0.005794505 -0.004282409 0.0077591045
0002e0 28 77 6b bb 0c b3 fe 3b 3f 7a 01 3b 0c 6d 26 3b
       -0.0035929177 0.007772809 0.0019756702 0.0025394587
0002f0 7f a9 ea 3b 7d 9a e8 3b 6c 0d 4b 3b 9f 5d 86 bb
       0.007161319 0.0070984946 0.0030983342 -0.004100516

transformer_blocks.0.self_attn.out_proj.weight f4 [64, 64]
000000 df ea fb bd 4e fc 0d 3d 5a 56 75 bd 1c 78 f1 bd
       -0.123006575 0.034664445 -0.059896804 -0.11790487
000010 db 51 b3 3d dc 67 f1 3c 73 ae 41 3d d8 9b 15 3d
       0.08755847 0.02946847 0.04728551 0.036525577
000020 c8 31 ba bd 2e 66 e9 bd 3d ed db bd 09 e4 e5 3c
       -0.09091526 -0.11396442 -0.10738609 0.028062837
000030 e8 68 2b bd ba 49 da bd d5 f6 da 3c 3a c5 40 3c
       -0.041848093 -0.106585935 0.026729027 0.0117657725
000040 39 f8 b2 bd 15 50 bb bd 31 a5 c4 3d bc eb 9e 3c
       -0.08738751 -0.09146134 0.0960182 0.019399516
000050 f8 dd fd 3d ae 86 21 3c f1 f8 25 3c 85 c1 35 3c
       0.12395853 0.00985877 0.010130153 0.011093502
000060 48 cf cf bd 98 ad cd 3d 0e f6 a8 3d bd e6 3b 3d
       -0.10146958 0.10042876 0.08250056 0.045874346
000070 ab 8a a6 3d 53 8a 2e bc 82 b4 fd 3c 11 0f c9 3d
       0.081319176 -0.010653096 0.030969862 0.09817327
000080 b2 65 51 3d 8e 89 29 3d 34 ac 6e 3d 71 d6 5a 3b
       0.051122375 0.041390948 0.058269694 0.0033391977
000090 70 5e 25 3c 64 59 ee 3c 2b 79 f0 3d 07 fa 3f bd
       0.010093316 0.02909536 0.11741861 -0.046869304
0000a0 a0 c4 2a bd 3c 90 39 bd 96 73 d1 3d 78 df 28 bd
       -0.041691422 -0.04530357 0.102271244 -0.04122874
0000b0 72 86 97 bd 74 19 a4 bd f8 a9 fd 3d 3c c3 2b 3d
       -0.0739869 -0.08012667 0.123859346 0.041934237
0000c0 11 ee ee 3d 29 5c ca bc 74 81 49 3d e1 23 37 bd
       0.11666501 -0.024702149 0.04919572 -0.04471195
0000d0 96 1d f6 3c e3 e9 04 ba 71 41 cd 3d b7 f6 ee bd
       0.030043405 -0.0005070252 0.100222476 -0.11668151
0000e0 40 8a 69 bd 6c 1d d4 bc c3 ea 9d bd aa f8 80 3c
       -0.05701661 -0.025892936 -0.07710793 0.015743572
0000f0 de 90 ab bd d2 87 5b 3d a7 21 e5 bd 00 8e f3 3d
       -0.083772406 0.053596325 -0.11188059 0.11892319
000100 20 94 26 bd 53 e5 a0 bc 9e 03 13 3d 46 4a 63 3d
       -0.040668607 -0.0196406 0.03589212 0.055490755
000110 d7 0f e4 bd a6 57 05 bd ac 06 e3 bd 05 06 6b 3d
       -0.11135834 -0.03255429 -0.11085257 0.057378788
000120 49 ea 7f 3d 63 45 59 3d 9e da 89 bd 17 9f ae ba
       0.06247929 0.053044688 -0.06731151 -0.0013322559
000130 e9 ee 83 3d 75 56 b9 3d 3e 97 19 bd e5 27 c0 bd
       0.06442053 0.090496935 -0.03749775 -0.09382609
000140 e2 0c 46 3b 91 9b b7 3d f3 6f f0 ba 48 56 b7 bc
       0.003022008 0.08965219 -0.001834391 -0.02238001
000150 62 f7 e5 3c 57 7e 3d 3d d2 b1 aa 3b a5 c0 e3 bd
       0.028072063 0.046263065 0.005209186 -0.111207284
000160 65 cc ad bc 2f a0 e8 bd 9f 19 a3 bc 0d 94 94 bc
       -0.021215627 -0.113586776 -0.019909678 -0.018137002
000170 79 69 a6 3c 17 e3 fc bd 69 23 c1 bd a6 f5 46 3d
       0.020313965 -0.123480015 -0.09430582 0.048574112
000180 df de ab 3c bd bd e4 bd b5 a9 d3 ba d7 b6 cd bd
       0.020980297 -0.11169002 -0.0016148599 -0.100446396
000190 25 2f d5 3d e0 d0 d4 bd 7f 29 ee bd e4 64 88 bd
       0.10409383 -0.10391402 -0.116290085 -0.06659868
0001a0 35 36 6f bc 8c 8f 53 bd 8d 83 82 bd 7c 8e e5 3d
       -0.014600326 -0.05165057 -0.063727476 0.11208817
0001b0 77 df b4 bd 12 1d d6 3d ac a4 03 be ae 04 09 3d
       -0.08831685 0.104547635 -0.12855786 0.03345173
0001c0 e4 cd 3a 3c 0b 37 85 bb 02 06 8f bd ea cd f3 bc
       0.011401627 -0.0040653995 -0.06983568 -0.029761273
0001d0 86 6a e2 3c fc f0 dd bc a5 92 b8 bd 8e 07 ec 3d
       0.027638685 -0.02709245 -0.09012345 0.115248784
0001e0 a0 2d ea bc 06 7b 61 3d ef 56 2e bd 23 c4 c9 bd
       -0.028586209 0.055048965 -0.042563375 -0.09851863
0001f0 29 92 04 be dd 24 87 3d 91 f2 13 3d c8 04 99 3d
       -0.1294638 0.06598828 0.03612 0.07471615
000200 20 3f d4 bd 13 10 d9 bd d0 0b c5 3d 40 61 10 3c
       -0.10363603 -0.10598769 0.09621394 0.008812249
000210 7c 91 50 bc 70 af 0c 3d 80 98 a5 3d d7 33 f8 3d
       -0.012729999 0.034346998 0.08085728 0.12119263
000220 a1 1f 98 bd a5 db a5 bd 4d 77 4e bc 50 23 3c 3d
       -0.07427908 -0.080985345 -0.012601686 0.045932114
000230 dc cf a5 3d 87 b2 01 be 70 eb b5 3d 08 44 b1 3d
       0.08096287 -0.12665759 0.08882797 0.08655554
000240 ee 29 50 bd cd 9f a8 3d f3 da 38 bd 8c e6 54 3d
       -0.050821237 0.082336046 -0.04513068 0.05197768
000250 80 f8 a5 3d 48 92 d9 3d 9b db 8b 3d 1e 33 3a 3d
       0.08104038 0.10623604 0.06828996 0.045458905
000260 3d 9a ee 3c 9a 2e 08 3c a2 bf a0 bd 86 c8 bb bd
       0.02912628 0.008311892 -0.07849051 -0.09169106
000270 38 10 93 bb da dd 85 bd 3b 26 2f bd 54 03 1d ba
       -0.0044880174 -0.065364555 -0.04276107 -0.00059895706
000280 50 15 88 3d fd e0 86 3d 3e a5 b5 bd a0 ef b8 bd
       0.0664469 0.06585882 -0.08869408 -0.0903008
000290 bc cf ab bd f0 88 ca bd 1d a9 f2 3d 1a 4f d8 3c
       -0.083892316 -0.098894 0.11848662 0.026404906
0002a0 ed b9 89 3d 31 01 5d 3d 96 34 b0 bd f9 f1 df 3d
       0.06724916 0.053956214 -0.0860378 0.109348245
0002b0 14 e5 8e bd fb a9 ba bb ef f1 6e 3b 9f 24 c8 3d
       -0.06977287 -0.005696533 0.0036460122 0.0977261
0002c0 0e ac 40 bc 8a 0e bb bd 6d 59 4b bd 53 c0 73 3d
       -0.011759771 -0.091336325 -0.04964583 0.059509587
0002d0 9f 00 93 bd 57 aa c1 bd f2 cf 97 3d f9 d2 3b bc
       -0.07177853 -0.09456318 0.07412709 -0.011463874
0002e0 97 53 89 3d 40 b8 04 be a7 b5 99 bd c2 28 b5 3d
       0.067053966 -0.12960911 -0.075053506 0.088456646
0002f0 a0 9b 14 bd 48 92 e1 3d 81 8d c1 bd 83 15 95 bd
       -0.036281228 0.11014229 -0.09450818 -0.07279494
000300 39 79 c2 3d 53 97 d2 bd 02 d7 78 3c 31 f5 94 3d
       0.09495778 -0.10282769 0.015187981 0.07273329
000310 54 73 60 bd b9 9e e7 bb ef fc ab bd 85 8b 9b bd
       -0.054797485 -0.0070684818 -0.08397853 -0.075949706
000320 f0 2e f2 3c 79 1e 8f bc c9 3c e9 bd 0e 0e b6 3c
       0.029563397 -0.017470585 -0.11388547 0.022223499
000330 15 75 2e 3d 29 99 d1 3c 70 b5 af 3d 19 c5 c7 bd
       0.042592127 0.025585728 0.08579528 -0.0975439
000340 dd 00 f1 3d 7e 81 35 bc da 1c 89 bd 3c 2a 0f 3d
       0.11767743 -0.011078237 -0.06694956 0.034952387
000350 dd cd 3c bc d4 67 a8 bb 92 53 bd 3d 95 c0 12 3d
       -0.011523691 -0.0051393304 0.092444554 0.03582819
000360 70 17 ef 3c 31 c2 c4 3d 15 b8 c9 bd e4 f6 f2 3d
       0.02918598 0.096073516 -0.09849564 0.11863497
000370 c3 56 8f bd ea 0f a6 3d f5 58 b0 bd 55 43 6b bd
       -0.0699897 0.08108504 -0.08610717 -0.05743726
000380 45 dc 08 bb 70 51 b8 bd 63 c0 ab bd 3b d6 4d 3d
       -0.0020883244 -0.08999908 -0.08386304 0.050253134
000390 f0 2c d4 3d c9 4a 0d 3d ee 25 46 3d 05 4a b2 3d
       0.10360134 0.03449515 0.048376016 0.08705524
0003a0 7b 6c 52 3d e2 69 ca 3d 34 d1 de 3d b2 51 3e bc
       0.051372986 0.09883477 0.10879746 -0.011616157
0003b0 08 c5 cd 3d f7 f4 db ba 21 7c d7 bd ec cc 00 3e
       0.10047346 -0.0016781379 -0.105217226 0.12578171
0003c0 a9 d8 9f bd 57 00 60 3d 31 94 21 3b a4 13 c0 3d
       -0.078049965 0.054687824 0.002465498 0.09378746
0003d0 02 6a aa bd 7c 13 23 bc a4 e8 7f 3d 69 60 af 3d
       -0.08321001 -0.009953376 0.062477723 0.08563311
0003e0 ce 38 9e 3d 52 74 6c 3d 25 c3 c1 3c 6e 34 2b 3d
       0.077256784 0.05772812 0.023652622 0.041798048
0003f0 88 9c e0 bc fe 14 56 bd a0 e2 b6 3c 35 71 26 3d
       -0.02741839 -0.052266113 0.02232486 0.040635306

transformer_blocks.0.self_attn.out_proj.bias f4 [64]
000000 4c d1 85 bb 4c 93 3c 3b 80 d3 9b bb 45 1b c2 bb
       -0.004083788 0.002877432 -0.0047554374 -0.005923661
000010 2e 03 11 bc 41 54 91 bb 38 3d c8 ba de 6f ef 3a
       -0.008850856 -0.0044350927 -0.0015277034 0.0018267592
000020 c7 a5 8c 3b a9 9d df 3b cf 36 d2 bb 4e 7c 0e 3b
       0.004292223 0.0068242145 -0.006415225 0.0021741572
000030 f7 9c 8a bb 7d a3 ea 3b fd be 73 bb ef d8 05 bc
       -0.0042301374 0.0071606026 -0.0037192695 -0.008169397
000040 da af 49 3b 34 c4 e6 bb a8 9d ba 3b aa 7a 0b 3c
       0.0030774982 -0.007042432 0.0056950636 0.008513132
000050 5e 95 88 3b 47 d3 5e 3b 10 dc 53 bb 40 e6 a4 bb
       0.0041681966 0.0034000443 -0.0032327212 -0.0050323308
000060 b7 e3 dd 3b 78 66 16 3b 2f 3c 81 3b 84 cf f5 3b
       0.0067715305 0.002294926 0.003943942 0.0075015444
000070 a8 06 ff 39 fb b8 00 ba 65 8e 89 ba 4c 52 00 bc
       0.0004864235 -0.0004910377 -0.0010494707 -0.007832121
000080 2a ca d8 bb d8 09 bf 3b 2a 80 1b 3c 03 67 a3 3b
       -0.0066158967 0.005830031 0.009491006 0.004986645
000090 9b 18 ea 3b 6e 84 eb bb 37 41 8b 3a a8 a2 3c 3b
       0.0071440465 -0.0071874177 0.0010624294 0.0028783474
0000a0 a3 7f 8f bb b0 50 0e bc 12 a6 be 3b da 00 60 ba
       -0.004379229 -0.00868623 0.005818137 -0.0008545049
0000b0 d0 fc 2f 3c 0e 27 83 3b 5b 20 59 bb d0 07 2c bc
       0.010741428 0.0040024584 -0.0033130858 -0.0104999095
0000c0 4e 87 c2 bb e8 28 00 bc 0d d0 ff 3b 74 37 ef bb
       -0.0059365397 -0.007822253 0.007806784 -0.0073003117
0000d0 f3 98 37 3c e0 bb 0e bb b3 40 ec 3b 92 54 b2 3b
       0.0112058995 -0.0021779463 0.007209861 0.0054422105
0000e0 73 2a 2a 3a cf b5 88 bb 56 54 e4 bb e5 41 57 bb
       0.0006491311 -0.004172064 -0.0069680614 -0.0032845673
0000f0 c9 bd cb bb b4 be 2a bc dd 80 f8 3b d9 8d dc 3b
       -0.0062176925 -0.010421444 0.007583721 0.0067307767

transformer_blocks.0.linear1.weight f4 [128, 64]
000000 7d f8 80 3d 61 d5 69 3d 11 dc b7 3d d3 07 e6 3b
       0.062973954 0.05708826 0.08977521 0.0070199757
000010 24 fe 64 bd 2a 2c 8f 3d 14 69 81 bd 37 51 d9 bd
       -0.05590643 0.069908455 -0.0631887 -0.106111936
000020 80 22 f9 bd 86 b7 eb bd 31 68 ad 3d 0f d4 d8 3d
       -0.121647835 -0.11509614 0.084671386 0.10587322
000030 d6 bf 9c ba 88 a8 f1 3b b3 07 b8 bd d8 c4 f5 bc
       -0.0011959027 0.007374827 -0.089858435 -0.030001089
000040 80 fd 38 3d 50 46 6b bd 25 2f 8d 3d e1 d4 c6 3d
       0.04516363 -0.057440102 0.06893758 0.09708572
000050 36 db 63 3d 6e 75 33 bd bc 0d 50 3c c9 41 8f 3d
       0.055628978 -0.04381316 0.012698587 0.069949694
000060 c6 5e 98 bd a3 88 9f 3d 30 d9 c3 bc e0 ac d9 bd
       -0.074399516 0.07789733 -0.023907274 -0.106286764
000070 b1 75 b6 bd 33 f6 a0 bd da 6f 0e bb a1 9e 9a bd
       -0.089091666 -0.07859459 -0.002173415 -0.07549787
000080 3a 80 d6 bd 67 90 7a 3d 66 8b c1 3d 61 4e ca bd
       -0.10473676 0.06117287 0.09450416 -0.09878231
000090 2a b4 9d 3d 18 2c 71 bc b3 fc ba bd 4c 1f c3 3d
       0.07700379 -0.014719985 -0.0913023 0.09527454
0000a0 dc a3 a2 bd 37 00 96 3d 44 d2 57 3d 04 8d 30 3c
       -0.0794141 0.0732426 0.05269076 0.010775808
0000b0 a3 bd a5 bd 7d 73 de 3d f6 be c3 bd 37 ec ab 3c
       -0.08092811 0.108618714 -0.09557907 0.02098666
0000c0 39 45 a9 bd a6 58 ab 3c 9a 55 1d bd 19 88 69 bd
       -0.08265156 0.020916294 -0.038411714 -0.05701456
0000d0 03 8a 19 bd 99 c6 c0 bd 76 39 87 3d 0f 20 88 bb
       -0.037485134 -0.094128795 0.06602757 -0.0041542123
0000e0 d3 df f9 bd 0b 57 4c bd e1 f2 05 3d aa 32 cd 3d
       -0.12200894 -0.0498877 0.03270233 0.10019429
0000f0 7a e5 a9 3d dc ab 4b 3d 32 5a 2b bd 0f 68 26 3d
       0.08295722 0.049724445 -0.041834064 0.04062658
000100 7c 7c fd bd 43 16 82 bd 6b 9a 5a 3c 17 c5 4e 3d
       -0.12377259 -0.06351902 0.01334248 0.05048093
000110 ba 3a f9 bd 0b 97 c3 bd ac cd 92 3d b5 c9 19 3d
       -0.12169404 -0.095502935 0.07168135 0.03754588
000120 0f 6f 4e 3d 2f bc 7a 3d 1f ca 52 bd c2 b0 92 bc
       0.050398882 0.061214622 -0.05146229 -0.01790655
000130 da ad 01 bd cc f5 97 3b 5c f0 84 3c e3 6b c7 bd
       -0.03165994 0.0046374556 0.016227894 -0.09737375
000140 a5 b7 ba bd 84 04 cc 3d e2 3a 3a bd 63 0f 84 bd
       -0.09117059 0.09961799 -0.04546631 -0.06448247
000150 bf 03 04 be cc c8 37 3c 28 28 e9 3d 00 b9 81 3d
       -0.12892054 0.011217307 0.11384612 0.06334114
000160 91 e0 67 bd f5 81 9f 3b d0 b5 b3 3c 62 ef f1 3d
       -0.056610648 0.004867787 0.02193728 0.11813237
000170 7f b2 8e 3c 29 19 60 bd 3f bd 06 3e 08 83 cb bc
       0.017419098 -0.054711495 0.13158129 -0.024842754
000180 fc fb e1 3d ab 33 ed 3d 30 6d dd bc 9b 34 ba bd
       0.1103439 0.115821205 -0.027029604 -0.09092065
000190 88 03 a2 3c ab 04 4b bb ba 04 1b 3c b1 a5 ac bc
       0.019777074 -0.0030978124 0.009461576 -0.021075102
0001a0 b5 7d 57 bd 7e b8 90 3d 86 a0 67 3d 70 32 78 37
       -0.052610118 0.07066439 0.05654957 1.4793695e-05
0001b0 e5 7c db 3d 8e 13 e7 bd f1 0e a3 bc c0 02 89 bd
       0.10717181 -0.11283027 -0.019904586 -0.06689978
0001c0 b6 8b ff bc 42 cc 2d bd cf 46 f1 3d 76 5f d1 bd
       -0.031194549 -0.042431124 0.11781084 -0.10223286
0001d0 95 7d 78 3c 15 0a 5e 3d 4d 37 a2 3d d2 43 af 3d
       0.01516666 0.054208834 0.07920704 0.085578576
0001e0 86 69 8f 3c 32 be 10 3d 25 1d 62 bd 8b d5 d7 bd
       0.017506372 0.035337634 -0.055203576 -0.10538777
0001f0 d1 6b be 3d b4 b0 32 bd b3 13 41 3d 99 44 54 3d
       0.09297908 -0.04362555 0.047137927 0.051823232
000200 f3 b0 90 3d 2e 8b aa 3c 71 e9 dc 3d 3f 36 c7 3d
       0.070650004 0.02081832 0.10786713 0.097271435
000210 fc fd b9 3b f5 03 1b 3c 29 47 07 3e 5c 37 a1 3d
       0.0056760293 0.009461393 0.13210739 0.07871887
000220 79 aa 0b bd 05 95 0a 3e 94 f3 9d bb 03 7f fe bd
       -0.034098122 0.13533409 -0.0048202965 -0.12426569
000230 f2 2e b9 bd a1 4e d7 bd 3d e4 70 3d 46 53 6d bc
       -0.09042157 -0.10513044 0.058811415 -0.014485186
000240 42 61 d7 bd 5a 72 e6 3d cf 65 eb 3d cd ad a0 3d
       -0.10516597 0.112522796 0.11494028 0.0784565
000250 d5 26 19 3d 54 87 99 bd 76 af fd 3d 9c 73 81 3c
       0.03739055 -0.07496515 0.12386982 0.015802197
000260 c7 6a 7a 3d 7e 08 a1 3d 37 c2 82 bd 23 15 dc 3d
       0.061136987 0.07862948 -0.063847 0.10746219
000270 69 b1 9c bd 11 34 48 3d 5b d2 af bd 77 e9 e9 3d
       -0.07651026 0.04887778 -0.08585044 0.11421483
000280 00 af af bd 2e 68 67 3b fd 81 d5 bd 59 0a ba ba
       -0.085783005 0.0035309899 -0.10425184 -0.0014193758
000290 ac 30 59 bd d0 e6 93 3d 5e 64 4a bc a0 bd d4 bd
       -0.053024933 0.07221758 -0.012353031 -0.103877306
0002a0 2c f4 3e ba 20 13 86 3d 67 9a cf 3d 42 ec 80 bd
       -0.0007284309 0.065466166 0.10136872 -0.062950626
0002b0 78 d6 8f bc 4c d8 a7 bd 03 52 17 bd c4 d5 89 bd
       -0.017558321 -0.08195552 -0.036943447 -0.06730226
0002c0 62 b3 dd 3d 37 67 92 3d 8e 3f ab 3d db 36 a8 3d
       0.1082523 0.07148593 0.083617315 0.08213588
0002d0 89 de 2b 3d 0e 37 c8 3d 7f 1a 6b bd 32 da 8d 3d
       0.041960273 0.09776126 -0.057398316 0.06926383
0002e0 ff 27 82 3d 86 81 88 3d f7 b8 05 be 9a f5 b1 3d
       0.06355285 0.0666533 -0.1305884 0.08689423
0002f0 7f e0 c8 3d 5b 0f 69 3d 2a c2 e6 bc 31 15 7d 3d
       0.09808444 0.05689941 -0.028168757 0.061787788
000300 f6 fb 95 3d 00 ba 4f 3c 47 d5 f2 3d 84 e5 d5 bd
       0.07323448 0.012678623 0.11857086 -0.10444167
000310 be de 49 3d 7e a6 3b 3b f4 05 e2 bc 95 52 a0 3d
       0.04928469 0.0028633173 -0.02759073 0.07828251
000320 42 19 bd bc 8d 51 e9 bb 8b b2 8d 3d 61 11 d3 3d
       -0.023083333 -0.0071203173 0.0691882 0.10306049
000330 a9 65 e0 bd d3 45 e0 3d 77 f8 ea bd be 52 58 bd
       -0.1095689 0.10950818 -0.11473172 -0.052813284
000340 e5 6e 00 3e c8 76 8b 3c 66 73 c1 3c b9 8a af bd
       0.12542303 0.017024413 0.023614597 -0.08571381
000350 f6 c8 d1 bd c8 a0 e2 3d de 8a c3 3d d4 70 cd bd
       -0.102434084 0.11065823 0.09547971 -0.10031286
000360 0e 17 a5 bd b7 b1 6f 3d f1 17 ce 3d be 49 7f 3d
       -0.08061038 0.05851909 0.1006316 0.062326185
000370 93 77 a6 3c 57 63 03 3e f3 19 95 3d c5 d2 a1 bd
       0.02032069 0.12830864 0.0728034 -0.07901529
000380 9a 95 2e 3d a8 c8 e2 bd 8a 89 cc 3d d2 98 c1 bc
       0.04262314 -0.110734284 0.09987171 -0.02363244
000390 9a d8 bd 3d d9 01 02 be a1 5d 41 3c f3 76 69 bd
       0.09269829 -0.12696017 0.011802108 -0.056998204
0003a0 91 d3 da bd 99 97 d8 bd ce 43 99 bd 11 29 d3 bc
       -0.10684884 -0.1057579 -0.07483636 -0.025776418
0003b0 0e 4b 45 3d 03 b6 1f bd 7f 46 e5 bd 72 e2 39 3d
       0.04816728 -0.03899194 -0.11195087 0.04538197
0003c0 33 37 ba bc f8 86 69 bd 41 73 ef bc 70 80 cf bd
       -0.0227314 -0.05701348 -0.029229762 -0.101319194
0003d0 70 15 8a bd ae d1 5d bd c9 ef 39 3d 1e 1d f2 bc
       -0.0674237 -0.054155044 0.045394693 -0.0295549
0003e0 d0 13 3f bd e6 f2 8a 3d 1a dd 59 3b 21 50 3a 3d
       -0.046649754 0.067846105 0.003324336 0.045486573
0003f0 e2 5f d6 3c c6 f6 c0 bd 3c ee 38 bd cc 2f a6 3d
       0.026168767 -0.09422068 -0.045149073 0.08114585

transformer_blocks.0.linear1.bias f4 [128]
000000 a1 66 8d bd 67 a5 05 3e a4 83 2a bc a6 85 ea 3d
       -0.069043405 0.13051377 -0.010407362 0.11451273
000010 83 eb cc 3c 24 ce e3 3d ff cf 9e bd 2c d3 93 bd
       0.025014644 0.111233026 -0.07754516 -0.07218012
000020 c0 f9 f6 bd 3a d3 96 3d 9f be 0f bc 46 74 9f 39
       -0.12059355 0.07364507 -0.008773475 0.00030413474
000030 53 86 e1 3d 7f f9 e1 bd 71 b1 17 3d 36 cd 5e 3d
       0.110119484 -0.11033916 0.037034456 0.054394923
000040 b3 ba d7 bd ea c8 b9 3b da a1 e1 3d 4c 2b 6e 3d
       -0.10533657 0.005669703 0.11017199 0.05814676
000050 29 3d c7 bd ff 62 aa 3b 90 5f a7 3d e7 be d6 3c
       -0.09728462 0.0051997895 0.08172524 0.026214076
000060 87 01 b4 bd dc fe f5 bd 2c 66 da bd b8 34 f2 3c
       -0.08789354 -0.12011501 -0.10664019 0.029566154
000070 4d 16 a1 bd 44 1b af bd 2d a4 9d 3c 51 d3 a6 bd
       -0.07865582 -0.085501224 0.019243324 -0.08145774
000080 e2 df 97 bd 34 c1 cf 3d a6 ce b9 bd b3 d5 af bd
       -0.07415749 0.101442724 -0.09072618 -0.08585682
000090 9f 7b 28 bd bd 4a c2 bd 8e 9e 90 3d eb c8 34 bd
       -0.04113352 -0.094869114 0.07061492 -0.044136923
0000a0 c0 c4 ee 3d 1c 84 cd 3d da b3 5c b9 1d bb ce 3d
       0.11658621 0.100349635 -0.00021047835 0.10094283
0000b0 c2 a0 46 bd 8d c3 d2 3d c5 ed d5 3d 46 18 bf 3d
       -0.048493154 0.102912046 0.104457416 0.09330802
0000c0 3b 3f e6 3d 5e 9a 51 3d 01 51 9e bd 82 ac 9c bd
       0.11242529 0.051172607 -0.07730294 -0.07650091
0000d0 fe 2c 3a bd 66 26 a9 3c 72 c9 15 3d e3 13 94 bc
       -0.045453064 0.020648193 0.036569066 -0.018075889
0000e0 cf ef 3f bd 7e af c4 3d 94 e2 8e 3d f2 4b fd bc
       -0.04685956 0.09603785 0.0697681 -0.030920003
0000f0 b7 59 a6 bd 0a b6 1b bd 09 9b cb bd 94 66 d1 3d
       -0.081225805 -0.038015403 -0.0994168 0.10224643
000100 20 60 93 3d 6a 3e 07 bd 87 28 cf 3d dc d7 b4 bd
       0.07196069 -0.033018507 0.10115152 -0.088302344
000110 a6 0f 8e bd 89 cd aa 3d b7 c1 00 be 8a 56 db 3d
       -0.069365785 0.08339984 -0.12573896 0.107098654
000120 4e 7e 90 bc d5 1b d1 3c c4 c9 5e bd 63 06 e9 bd
       -0.017638352 0.025525967 -0.054391637 -0.11378171
000130 33 c8 87 bd 85 d4 ad 3d b7 e8 99 3a c4 87 ff bc
       -0.06629982 0.084878005 0.0011742328 -0.031192668
000140 88 e6 95 bd ae dc 2c 3b a9 b3 c4 3c b1 cc dd 3d
       -0.07319361 0.0026376653 0.02401145 0.108300574
000150 4e 43 8c 3d 0d 96 ff bd ea 4a b3 3c 82 a9 93 bd
       0.06848775 -0.12479792 0.021886308 -0.072100654
000160 9b 56 69 3d ed b8 5f 3d f8 11 bc 3d 04 fa ef bd
       0.05696736 0.05461972 0.09183115 -0.117176086
000170 9b 9f a3 ba d6 ff db 3d 2f 76 cf 3d c4 37 81 3d
       -0.0012483479 0.10742156 0.101299636 0.063094646
000180 bf f0 02 be 70 11 84 3d a3 9f cd bd 8a e8 dd bc
       -0.1278715 0.064486384 -0.10040214 -0.027088422
000190 f2 27 f9 bd f8 f4 8e bd e0 3b bf 3c 29 0c 57 bd
       -0.12165822 -0.06980318 0.02334398 -0.05250183
0001a0 cd 06 89 3d 02 7e ce 3d c3 44 4a b9 78 24 eb bc
       0.0669075 0.10082628 -0.00019289837 -0.028703913
0001b0 19 cc df 3d 09 97 45 bc 2f 0c 8e bd a1 34 84 bd
       0.109276004 -0.012059935 -0.069359176 -0.06455351
0001c0 bb cf fa 3b e3 1f 95 bc 34 12 96 bd ee 50 42 bd
       0.007654158 -0.018203681 -0.07327691 -0.04744046
0001d0 9f c4 3b bd 86 d0 d0 3c 54 fc 9f 3d a0 9d 62 3d
       -0.04584181 0.025490057 0.078118 0.055326104
0001e0 0d af 9a bd 4f 6e 9e bc b5 d8 af 3d a2 8d 64 bd
       -0.075529195 -0.019339709 0.085862555 -0.055799134
0001f0 0b 14 fc 3d 3e ee ed bc 0b b7 c0 3d 02 59 9f bd
       0.123085104 -0.029044267 0.09409913 -0.07780649
